…
----------

N = 80000
sig_frac = 0.00
#B = 79984
#S = 16
----------

j1 split info (split by unsup classifier on j2):
thresh = 49.0
#B' = 34300
#S' = 15883
B' sig_frac = 0.000
S' sig_frac = 0.001

j2 split info (split by unsup classifier on j1:
thresh = 49.0
#B' = 34530
#S' = 15794
B' sig_frac = 0.000
S' sig_frac = 0.001
----------

nn1 model and input info:
Model: "sequential"
_________________________________________________________________
Layer (type)                 Output Shape              Param #   
=================================================================
dense (Dense)                (None, 32)                192       
_________________________________________________________________
leaky_re_lu (LeakyReLU)      (None, 32)                0         
_________________________________________________________________
dropout (Dropout)            (None, 32)                0         
_________________________________________________________________
dense_1 (Dense)              (None, 16)                528       
_________________________________________________________________
elu (ELU)                    (None, 16)                0         
_________________________________________________________________
dropout_1 (Dropout)          (None, 16)                0         
_________________________________________________________________
dense_2 (Dense)              (None, 4)                 68        
_________________________________________________________________
elu_1 (ELU)                  (None, 4)                 0         
_________________________________________________________________
dense_3 (Dense)              (None, 1)                 5         
=================================================================
Total params: 793
Trainable params: 793
Non-trainable params: 0
_________________________________________________________________

X_train shape = (45164, 5)
y_train shape = (45164,)
X_val shape = (5019, 5)
y_val shape = (5019,)

nn2 model and input info:
Model: "sequential_1"
_________________________________________________________________
Layer (type)                 Output Shape              Param #   
=================================================================
dense_4 (Dense)              (None, 32)                192       
_________________________________________________________________
leaky_re_lu_1 (LeakyReLU)    (None, 32)                0         
_________________________________________________________________
dropout_2 (Dropout)          (None, 32)                0         
_________________________________________________________________
dense_5 (Dense)              (None, 16)                528       
_________________________________________________________________
elu_2 (ELU)                  (None, 16)                0         
_________________________________________________________________
dropout_3 (Dropout)          (None, 16)                0         
_________________________________________________________________
dense_6 (Dense)              (None, 4)                 68        
_________________________________________________________________
elu_3 (ELU)                  (None, 4)                 0         
_________________________________________________________________
dense_7 (Dense)              (None, 1)                 5         
=================================================================
Total params: 793
Trainable params: 793
Non-trainable params: 0
_________________________________________________________________

X_train shape = (45291, 5)
y_train shape = (45291,)
X_val shape = (5033, 5)
y_val shape = (5033,)

----------

Classifiers correlation
Unsup classifiers correlation: 0.277
Semisup classifiers correlation: 0.034
…
