…
N = 100000
sig_frac = 0.20
#B = 80000
#S = 20000
----------

j1 split info (split by unsup classifier on j2):
thresh = 27.0
#B' = 45224
#S' = 17980
B' sig_frac = 0.082
S' sig_frac = 0.620

j2 split info (split by unsup classifier on j1:
thresh = 29.0
#B' = 45709
#S' = 18555
B' sig_frac = 0.065
S' sig_frac = 0.678
----------

nn1 model and input info:
Model: "sequential"
_________________________________________________________________
Layer (type)                 Output Shape              Param #   
=================================================================
masking (Masking)            (None, 80, 6)             0         
_________________________________________________________________
lstm (LSTM)                  (None, 50)                11400     
_________________________________________________________________
dense (Dense)                (None, 16)                816       
_________________________________________________________________
dense_1 (Dense)              (None, 1)                 17        
=================================================================
Total params: 12,233
Trainable params: 12,233
Non-trainable params: 0
_________________________________________________________________

nn2 model and input info:
Model: "sequential_1"
_________________________________________________________________
Layer (type)                 Output Shape              Param #   
=================================================================
masking_1 (Masking)          (None, 80, 6)             0         
_________________________________________________________________
lstm_1 (LSTM)                (None, 50)                11400     
_________________________________________________________________
dense_2 (Dense)              (None, 16)                816       
_________________________________________________________________
dense_3 (Dense)              (None, 1)                 17        
=================================================================
Total params: 12,233
Trainable params: 12,233
Non-trainable params: 0
_________________________________________________________________

----------

Classifiers correlation
Unsup classifiers correlation: 0.384
Semisup classifiers correlation: 0.489
----------

