…
----------

N = 5000
sig_frac = 0.05
#B = 4750
#S = 250
----------

j1 split info (split by unsup classifier on j2):
thresh = 50.0
#B' = 2077
#S' = 989
B' sig_frac = 0.00578
S' sig_frac = 0.191

j2 split info (split by unsup classifier on j1:
thresh = 49.0
#B' = 2154
#S' = 975
B' sig_frac = 0.00789
S' sig_frac = 0.169
----------

nn1 model and input info:
Model: "sequential"
_________________________________________________________________
Layer (type)                 Output Shape              Param #   
=================================================================
dense (Dense)                (None, 32)                256       
_________________________________________________________________
leaky_re_lu (LeakyReLU)      (None, 32)                0         
_________________________________________________________________
dropout (Dropout)            (None, 32)                0         
_________________________________________________________________
dense_1 (Dense)              (None, 16)                528       
_________________________________________________________________
elu (ELU)                    (None, 16)                0         
_________________________________________________________________
dropout_1 (Dropout)          (None, 16)                0         
_________________________________________________________________
dense_2 (Dense)              (None, 4)                 68        
_________________________________________________________________
elu_1 (ELU)                  (None, 4)                 0         
_________________________________________________________________
dense_3 (Dense)              (None, 1)                 5         
=================================================================
Total params: 857
Trainable params: 857
Non-trainable params: 0
_________________________________________________________________

X_train shape = (2759, 7)
y_train shape = (2759,)
X_val shape = (307, 7)
y_val shape = (307,)

nn2 model and input info:
Model: "sequential_1"
_________________________________________________________________
Layer (type)                 Output Shape              Param #   
=================================================================
dense_4 (Dense)              (None, 32)                256       
_________________________________________________________________
leaky_re_lu_1 (LeakyReLU)    (None, 32)                0         
_________________________________________________________________
dropout_2 (Dropout)          (None, 32)                0         
_________________________________________________________________
dense_5 (Dense)              (None, 16)                528       
_________________________________________________________________
elu_2 (ELU)                  (None, 16)                0         
_________________________________________________________________
dropout_3 (Dropout)          (None, 16)                0         
_________________________________________________________________
dense_6 (Dense)              (None, 4)                 68        
_________________________________________________________________
elu_3 (ELU)                  (None, 4)                 0         
_________________________________________________________________
dense_7 (Dense)              (None, 1)                 5         
=================================================================
Total params: 857
Trainable params: 857
Non-trainable params: 0
_________________________________________________________________

X_train shape = (2816, 7)
y_train shape = (2816,)
X_val shape = (313, 7)
y_val shape = (313,)

----------

Classifiers correlation
Unsup classifiers correlation: 0.326
Semisup classifiers correlation: 0.286
…
