…
train_nn: True
----------

N = 800
sig_frac = 0.50
#B = 400
#S = 400
----------

j1 split info (split by unsup classifier on j2):
thresh = 69.0
#B' = 335
#S' = 155
B' sig_frac = 0.215
S' sig_frac = 0.865

j2 split info (split by unsup classifier on j1:
thresh = 67.0
#B' = 334
#S' = 157
B' sig_frac = 0.251
S' sig_frac = 0.834
----------

nn1 model and input info:
Model: "sequential"
_________________________________________________________________
Layer (type)                 Output Shape              Param #   
=================================================================
dense (Dense)                (None, 32)                192       
_________________________________________________________________
leaky_re_lu (LeakyReLU)      (None, 32)                0         
_________________________________________________________________
dropout (Dropout)            (None, 32)                0         
_________________________________________________________________
dense_1 (Dense)              (None, 16)                528       
_________________________________________________________________
elu (ELU)                    (None, 16)                0         
_________________________________________________________________
dropout_1 (Dropout)          (None, 16)                0         
_________________________________________________________________
dense_2 (Dense)              (None, 4)                 68        
_________________________________________________________________
elu_1 (ELU)                  (None, 4)                 0         
_________________________________________________________________
dense_3 (Dense)              (None, 1)                 5         
=================================================================
Total params: 793
Trainable params: 793
Non-trainable params: 0
_________________________________________________________________

X_train shape = (441, 5)
y_train shape = (441,)
X_val shape = (49, 5)
y_val shape = (49,)

nn2 model and input info:
Model: "sequential_1"
_________________________________________________________________
Layer (type)                 Output Shape              Param #   
=================================================================
dense_4 (Dense)              (None, 32)                192       
_________________________________________________________________
leaky_re_lu_1 (LeakyReLU)    (None, 32)                0         
_________________________________________________________________
dropout_2 (Dropout)          (None, 32)                0         
_________________________________________________________________
dense_5 (Dense)              (None, 16)                528       
_________________________________________________________________
elu_2 (ELU)                  (None, 16)                0         
_________________________________________________________________
dropout_3 (Dropout)          (None, 16)                0         
_________________________________________________________________
dense_6 (Dense)              (None, 4)                 68        
_________________________________________________________________
elu_3 (ELU)                  (None, 4)                 0         
_________________________________________________________________
dense_7 (Dense)              (None, 1)                 5         
=================================================================
Total params: 793
Trainable params: 793
Non-trainable params: 0
_________________________________________________________________

X_train shape = (441, 5)
y_train shape = (441,)
X_val shape = (50, 5)
y_val shape = (50,)

----------

Classifiers correlation
Unsup classifiers correlation: 0.169
Semisup classifiers correlation: -0.027
…
