…
#B = 80000
#S = 20000
----------

j1 split info (split by unsup classifier on j2):
thresh = 0.4239169657230377
#B' = 50001
#S' = 49999
B' sig_frac = 0.046
S' sig_frac = 0.354

j2 split info (split by unsup classifier on j1:
thresh = 0.41124820709228516
#B' = 50000
#S' = 50000
B' sig_frac = 0.043
S' sig_frac = 0.357
----------

nn1 model and input info:
Model: "sequential_2"
_________________________________________________________________
Layer (type)                 Output Shape              Param #   
=================================================================
masking_2 (Masking)          (None, 80, 6)             0         
_________________________________________________________________
lstm_2 (LSTM)                (None, 50)                11400     
_________________________________________________________________
dense_4 (Dense)              (None, 16)                816       
_________________________________________________________________
dense_5 (Dense)              (None, 1)                 17        
=================================================================
Total params: 12,233
Trainable params: 12,233
Non-trainable params: 0
_________________________________________________________________

nn2 model and input info:
Model: "sequential_3"
_________________________________________________________________
Layer (type)                 Output Shape              Param #   
=================================================================
masking_3 (Masking)          (None, 80, 6)             0         
_________________________________________________________________
lstm_3 (LSTM)                (None, 50)                11400     
_________________________________________________________________
dense_6 (Dense)              (None, 16)                816       
_________________________________________________________________
dense_7 (Dense)              (None, 1)                 17        
=================================================================
Total params: 12,233
Trainable params: 12,233
Non-trainable params: 0
_________________________________________________________________

----------

Classifiers correlation
Unsup classifiers correlation: 0.308
Semisup classifiers correlation: 0.510
----------

