…
train_nn: True
----------

N = 100000
sig_frac = 0
#B = 100000
#S = 0
----------

j1 split info (split by unsup classifier on j2):
thresh = 49.0
#B' = 42953
#S' = 19785
B' sig_frac = 0
S' sig_frac = 0

j2 split info (split by unsup classifier on j1:
thresh = 49.0
#B' = 43113
#S' = 19713
B' sig_frac = 0
S' sig_frac = 0
----------

nn1 model and input info:
Model: "sequential"
_________________________________________________________________
Layer (type)                 Output Shape              Param #   
=================================================================
dense (Dense)                (None, 32)                96        
_________________________________________________________________
leaky_re_lu (LeakyReLU)      (None, 32)                0         
_________________________________________________________________
dropout (Dropout)            (None, 32)                0         
_________________________________________________________________
dense_1 (Dense)              (None, 16)                528       
_________________________________________________________________
elu (ELU)                    (None, 16)                0         
_________________________________________________________________
dropout_1 (Dropout)          (None, 16)                0         
_________________________________________________________________
dense_2 (Dense)              (None, 4)                 68        
_________________________________________________________________
elu_1 (ELU)                  (None, 4)                 0         
_________________________________________________________________
dense_3 (Dense)              (None, 1)                 5         
=================================================================
Total params: 697
Trainable params: 697
Non-trainable params: 0
_________________________________________________________________

X_train shape = (56464, 2)
y_train shape = (56464,)
X_val shape = (6274, 2)
y_val shape = (6274,)

nn2 model and input info:
Model: "sequential_1"
_________________________________________________________________
Layer (type)                 Output Shape              Param #   
=================================================================
dense_4 (Dense)              (None, 32)                96        
_________________________________________________________________
leaky_re_lu_1 (LeakyReLU)    (None, 32)                0         
_________________________________________________________________
dropout_2 (Dropout)          (None, 32)                0         
_________________________________________________________________
dense_5 (Dense)              (None, 16)                528       
_________________________________________________________________
elu_2 (ELU)                  (None, 16)                0         
_________________________________________________________________
dropout_3 (Dropout)          (None, 16)                0         
_________________________________________________________________
dense_6 (Dense)              (None, 4)                 68        
_________________________________________________________________
elu_3 (ELU)                  (None, 4)                 0         
_________________________________________________________________
dense_7 (Dense)              (None, 1)                 5         
=================================================================
Total params: 697
Trainable params: 697
Non-trainable params: 0
_________________________________________________________________

X_train shape = (56543, 2)
y_train shape = (56543,)
X_val shape = (6283, 2)
y_val shape = (6283,)

----------

Classifiers correlation
Unsup classifiers correlation: 0.277
Semisup classifiers correlation: 0.067
…
